…
Namespace(AWM='BWA_fusion_dropout_feat_v2', alpha1=0.8, alpha2=0.8, alpha3=1, alpha4=1, batch_size=10, dataset='AntSampleDataset', dataset_name='ActivityNet1.2', dropout_ratio=0.7, feature_fps=25, feature_size=2048, feature_type='I3D', gamma_oic=0.2, interval=200, k=5.0, lr=3e-05, max_iter=500, max_seqlen=60, model_name='ANT_CO2_3552', num_class=100, num_similar=3, path_dataset='path/to/Thumos14', pretrained_ckpt=None, proposal_method='multiple_threshold_hamnet', reduce_ratio=16, scale=1, seed=3552, similar_size=2, t=5, topk=60, topk2=10, use_model0='ANT_CO20', use_model1='ANT_CO21', use_model2='ANT_CO22', weight_decay=0.0005)
ANT_CO21(
  (vAttn): BWA_fusion_dropout_feat_v2(
    (attention): Sequential(
      (0): Conv1d(1024, 512, kernel_size=(3,), stride=(1,), padding=(1,))
      (1): LeakyReLU(negative_slope=0.2)
      (2): Dropout(p=0.5, inplace=False)
      (3): Conv1d(512, 512, kernel_size=(3,), stride=(1,), padding=(1,))
      (4): LeakyReLU(negative_slope=0.2)
      (5): Conv1d(512, 1, kernel_size=(1,), stride=(1,))
      (6): Dropout(p=0.5, inplace=False)
      (7): Sigmoid()
    )
  )
  (fAttn): BWA_fusion_dropout_feat_v2(
    (attention): Sequential(
      (0): Conv1d(1024, 512, kernel_size=(3,), stride=(1,), padding=(1,))
      (1): LeakyReLU(negative_slope=0.2)
      (2): Dropout(p=0.5, inplace=False)
      (3): Conv1d(512, 512, kernel_size=(3,), stride=(1,), padding=(1,))
      (4): LeakyReLU(negative_slope=0.2)
      (5): Conv1d(512, 1, kernel_size=(1,), stride=(1,))
      (6): Dropout(p=0.5, inplace=False)
      (7): Sigmoid()
    )
  )
  (NLB): Non_Local_Block(
    (Theta): Sequential(
      (0): Conv1d(2048, 1024, kernel_size=(1,), stride=(1,))
      (1): LeakyReLU(negative_slope=0.2)
      (2): Dropout(p=0.7, inplace=False)
    )
    (Phi): Sequential(
      (0): Conv1d(2048, 1024, kernel_size=(1,), stride=(1,))
      (1): LeakyReLU(negative_slope=0.2)
      (2): Dropout(p=0.7, inplace=False)
    )
    (Gamma): Sequential(
      (0): Conv1d(2048, 1024, kernel_size=(1,), stride=(1,))
      (1): LeakyReLU(negative_slope=0.2)
      (2): Dropout(p=0.7, inplace=False)
    )
    (Conv_out): Sequential(
      (0): Conv1d(1024, 2048, kernel_size=(1,), stride=(1,))
      (1): LeakyReLU(negative_slope=0.2)
      (2): Dropout(p=0.7, inplace=False)
    )
  )
  (fusion2): Sequential(
    (0): Conv1d(2048, 2048, kernel_size=(3,), stride=(1,), padding=(1,))
    (1): LeakyReLU(negative_slope=0.2)
    (2): Dropout(p=0.7, inplace=False)
  )
  (fusion): Sequential(
    (0): Conv1d(2048, 2048, kernel_size=(1,), stride=(1,))
    (1): LeakyReLU(negative_slope=0.2)
    (2): Dropout(p=0.7, inplace=False)
  )
  (classifier): Sequential(
    (0): Dropout(p=0.7, inplace=False)
    (1): Conv1d(6144, 2048, kernel_size=(3,), stride=(1,), padding=(1,))
    (2): LeakyReLU(negative_slope=0.2)
    (3): Dropout(p=0.7, inplace=False)
    (4): Conv1d(2048, 101, kernel_size=(1,), stride=(1,))
  )
  (pool): AvgPool1d(kernel_size=(13,), stride=(1,), padding=(6,))
)
==========================================
ANT_CO22(
  (vAttn): BWA_fusion_dropout_feat_v2(
    (attention): Sequential(
      (0): Conv1d(1024, 512, kernel_size=(3,), stride=(1,), padding=(1,))
      (1): LeakyReLU(negative_slope=0.2)
      (2): Dropout(p=0.5, inplace=False)
      (3): Conv1d(512, 512, kernel_size=(3,), stride=(1,), padding=(1,))
      (4): LeakyReLU(negative_slope=0.2)
      (5): Conv1d(512, 1, kernel_size=(1,), stride=(1,))
      (6): Dropout(p=0.5, inplace=False)
      (7): Sigmoid()
    )
  )
  (fAttn): BWA_fusion_dropout_feat_v2(
    (attention): Sequential(
      (0): Conv1d(1024, 512, kernel_size=(3,), stride=(1,), padding=(1,))
      (1): LeakyReLU(negative_slope=0.2)
      (2): Dropout(p=0.5, inplace=False)
      (3): Conv1d(512, 512, kernel_size=(3,), stride=(1,), padding=(1,))
      (4): LeakyReLU(negative_slope=0.2)
      (5): Conv1d(512, 1, kernel_size=(1,), stride=(1,))
      (6): Dropout(p=0.5, inplace=False)
      (7): Sigmoid()
    )
  )
  (fusion2): Sequential(
    (0): Conv1d(2048, 2048, kernel_size=(3,), stride=(1,), padding=(1,))
    (1): LeakyReLU(negative_slope=0.2)
    (2): Dropout(p=0.7, inplace=False)
  )
  (fusion): Sequential(
    (0): Conv1d(2048, 2048, kernel_size=(1,), stride=(1,))
    (1): LeakyReLU(negative_slope=0.2)
    (2): Dropout(p=0.7, inplace=False)
  )
  (classifier): Sequential(
    (0): Dropout(p=0.7, inplace=False)
    (1): Conv1d(4096, 2048, kernel_size=(3,), stride=(1,), padding=(1,))
    (2): LeakyReLU(negative_slope=0.2)
    (3): Dropout(p=0.7, inplace=False)
    (4): Conv1d(2048, 101, kernel_size=(1,), stride=(1,))
  )
  (pool): AvgPool1d(kernel_size=(13,), stride=(1,), padding=(6,))
)
nonzero torch.Size([22, 1])
nonzero torch.Size([22, 1])
nonzero torch.Size([25, 1])
nonzero torch.Size([32, 1])
nonzero torch.Size([29, 1])
nonzero torch.Size([29, 1])
nonzero torch.Size([26, 1])
nonzero torch.Size([29, 1])
nonzero torch.Size([16, 1])
nonzero torch.Size([26, 1])
nonzero torch.Size([23, 1])
…
